[2024-02-15 19:20:10 eval_bs16] (train_images.py 44): INFO Encoder(
  (fc1): Linear(in_features=2560, out_features=4096, bias=True)
  (fc3): Linear(in_features=4096, out_features=1024, bias=True)
  (lrelu): LeakyReLU(negative_slope=0.2, inplace=True)
  (linear_means): Linear(in_features=1024, out_features=512, bias=True)
  (linear_log_var): Linear(in_features=1024, out_features=512, bias=True)
)
[2024-02-15 19:20:10 eval_bs16] (train_images.py 45): INFO Generator(
  (fc1): Linear(in_features=1024, out_features=4096, bias=True)
  (fc3): Linear(in_features=4096, out_features=2048, bias=True)
  (lrelu): LeakyReLU(negative_slope=0.2, inplace=True)
  (sigmoid): Sigmoid()
)
[2024-02-15 19:20:10 eval_bs16] (train_images.py 46): INFO Discriminator_D1(
  (fc1): Linear(in_features=2560, out_features=4096, bias=True)
  (fc2): Linear(in_features=4096, out_features=1, bias=True)
  (lrelu): LeakyReLU(negative_slope=0.2, inplace=True)
)
[2024-02-15 19:20:10 eval_bs16] (train_images.py 47): INFO Feedback(
  (fc1): Linear(in_features=4096, out_features=4096, bias=True)
  (fc2): Linear(in_features=4096, out_features=4096, bias=True)
  (lrelu): LeakyReLU(negative_slope=0.2, inplace=True)
)
[2024-02-15 19:20:10 eval_bs16] (train_images.py 48): INFO AttDec(
  (fc1): Linear(in_features=2048, out_features=4096, bias=True)
  (fc3): Linear(in_features=4096, out_features=512, bias=True)
  (lrelu): LeakyReLU(negative_slope=0.2, inplace=True)
)
[2024-02-15 19:21:22 eval_bs16] (train_images.py 44): INFO Encoder(
  (fc1): Linear(in_features=2560, out_features=4096, bias=True)
  (fc3): Linear(in_features=4096, out_features=1024, bias=True)
  (lrelu): LeakyReLU(negative_slope=0.2, inplace=True)
  (linear_means): Linear(in_features=1024, out_features=512, bias=True)
  (linear_log_var): Linear(in_features=1024, out_features=512, bias=True)
)
[2024-02-15 19:21:22 eval_bs16] (train_images.py 45): INFO Generator(
  (fc1): Linear(in_features=1024, out_features=4096, bias=True)
  (fc3): Linear(in_features=4096, out_features=2048, bias=True)
  (lrelu): LeakyReLU(negative_slope=0.2, inplace=True)
  (sigmoid): Sigmoid()
)
[2024-02-15 19:21:22 eval_bs16] (train_images.py 46): INFO Discriminator_D1(
  (fc1): Linear(in_features=2560, out_features=4096, bias=True)
  (fc2): Linear(in_features=4096, out_features=1, bias=True)
  (lrelu): LeakyReLU(negative_slope=0.2, inplace=True)
)
[2024-02-15 19:21:22 eval_bs16] (train_images.py 47): INFO Feedback(
  (fc1): Linear(in_features=4096, out_features=4096, bias=True)
  (fc2): Linear(in_features=4096, out_features=4096, bias=True)
  (lrelu): LeakyReLU(negative_slope=0.2, inplace=True)
)
[2024-02-15 19:21:22 eval_bs16] (train_images.py 48): INFO AttDec(
  (fc1): Linear(in_features=2048, out_features=4096, bias=True)
  (fc3): Linear(in_features=4096, out_features=512, bias=True)
  (lrelu): LeakyReLU(negative_slope=0.2, inplace=True)
)
[2024-02-15 19:33:38 eval_bs16] (train_images.py 44): INFO Encoder(
  (fc1): Linear(in_features=2560, out_features=4096, bias=True)
  (fc3): Linear(in_features=4096, out_features=1024, bias=True)
  (lrelu): LeakyReLU(negative_slope=0.2, inplace=True)
  (linear_means): Linear(in_features=1024, out_features=512, bias=True)
  (linear_log_var): Linear(in_features=1024, out_features=512, bias=True)
)
[2024-02-15 19:33:38 eval_bs16] (train_images.py 45): INFO Generator(
  (fc1): Linear(in_features=1024, out_features=4096, bias=True)
  (fc3): Linear(in_features=4096, out_features=2048, bias=True)
  (lrelu): LeakyReLU(negative_slope=0.2, inplace=True)
  (sigmoid): Sigmoid()
)
[2024-02-15 19:33:38 eval_bs16] (train_images.py 46): INFO Discriminator_D1(
  (fc1): Linear(in_features=2560, out_features=4096, bias=True)
  (fc2): Linear(in_features=4096, out_features=1, bias=True)
  (lrelu): LeakyReLU(negative_slope=0.2, inplace=True)
)
[2024-02-15 19:33:38 eval_bs16] (train_images.py 47): INFO Feedback(
  (fc1): Linear(in_features=4096, out_features=4096, bias=True)
  (fc2): Linear(in_features=4096, out_features=4096, bias=True)
  (lrelu): LeakyReLU(negative_slope=0.2, inplace=True)
)
[2024-02-15 19:33:38 eval_bs16] (train_images.py 48): INFO AttDec(
  (fc1): Linear(in_features=2048, out_features=4096, bias=True)
  (fc3): Linear(in_features=4096, out_features=512, bias=True)
  (lrelu): LeakyReLU(negative_slope=0.2, inplace=True)
)
[2024-02-15 19:35:53 eval_bs16] (train_images.py 44): INFO Encoder(
  (fc1): Linear(in_features=2560, out_features=4096, bias=True)
  (fc3): Linear(in_features=4096, out_features=1024, bias=True)
  (lrelu): LeakyReLU(negative_slope=0.2, inplace=True)
  (linear_means): Linear(in_features=1024, out_features=512, bias=True)
  (linear_log_var): Linear(in_features=1024, out_features=512, bias=True)
)
[2024-02-15 19:35:53 eval_bs16] (train_images.py 45): INFO Generator(
  (fc1): Linear(in_features=1024, out_features=4096, bias=True)
  (fc3): Linear(in_features=4096, out_features=2048, bias=True)
  (lrelu): LeakyReLU(negative_slope=0.2, inplace=True)
  (sigmoid): Sigmoid()
)
[2024-02-15 19:35:53 eval_bs16] (train_images.py 46): INFO Discriminator_D1(
  (fc1): Linear(in_features=2560, out_features=4096, bias=True)
  (fc2): Linear(in_features=4096, out_features=1, bias=True)
  (lrelu): LeakyReLU(negative_slope=0.2, inplace=True)
)
[2024-02-15 19:35:53 eval_bs16] (train_images.py 47): INFO Feedback(
  (fc1): Linear(in_features=4096, out_features=4096, bias=True)
  (fc2): Linear(in_features=4096, out_features=4096, bias=True)
  (lrelu): LeakyReLU(negative_slope=0.2, inplace=True)
)
[2024-02-15 19:35:53 eval_bs16] (train_images.py 48): INFO AttDec(
  (fc1): Linear(in_features=2048, out_features=4096, bias=True)
  (fc3): Linear(in_features=4096, out_features=512, bias=True)
  (lrelu): LeakyReLU(negative_slope=0.2, inplace=True)
)
[2024-02-15 19:42:44 eval_bs16] (train_images.py 44): INFO Encoder(
  (fc1): Linear(in_features=2560, out_features=4096, bias=True)
  (fc3): Linear(in_features=4096, out_features=1024, bias=True)
  (lrelu): LeakyReLU(negative_slope=0.2, inplace=True)
  (linear_means): Linear(in_features=1024, out_features=512, bias=True)
  (linear_log_var): Linear(in_features=1024, out_features=512, bias=True)
)
[2024-02-15 19:42:44 eval_bs16] (train_images.py 45): INFO Generator(
  (fc1): Linear(in_features=1024, out_features=4096, bias=True)
  (fc3): Linear(in_features=4096, out_features=2048, bias=True)
  (lrelu): LeakyReLU(negative_slope=0.2, inplace=True)
  (sigmoid): Sigmoid()
)
[2024-02-15 19:42:44 eval_bs16] (train_images.py 46): INFO Discriminator_D1(
  (fc1): Linear(in_features=2560, out_features=4096, bias=True)
  (fc2): Linear(in_features=4096, out_features=1, bias=True)
  (lrelu): LeakyReLU(negative_slope=0.2, inplace=True)
)
[2024-02-15 19:42:44 eval_bs16] (train_images.py 47): INFO Feedback(
  (fc1): Linear(in_features=4096, out_features=4096, bias=True)
  (fc2): Linear(in_features=4096, out_features=4096, bias=True)
  (lrelu): LeakyReLU(negative_slope=0.2, inplace=True)
)
[2024-02-15 19:42:44 eval_bs16] (train_images.py 48): INFO AttDec(
  (fc1): Linear(in_features=2048, out_features=4096, bias=True)
  (fc3): Linear(in_features=4096, out_features=512, bias=True)
  (lrelu): LeakyReLU(negative_slope=0.2, inplace=True)
)
[2024-02-15 19:48:11 eval_bs16] (train_images.py 44): INFO Encoder(
  (fc1): Linear(in_features=2560, out_features=4096, bias=True)
  (fc3): Linear(in_features=4096, out_features=1024, bias=True)
  (lrelu): LeakyReLU(negative_slope=0.2, inplace=True)
  (linear_means): Linear(in_features=1024, out_features=512, bias=True)
  (linear_log_var): Linear(in_features=1024, out_features=512, bias=True)
)
[2024-02-15 19:48:11 eval_bs16] (train_images.py 45): INFO Generator(
  (fc1): Linear(in_features=1024, out_features=4096, bias=True)
  (fc3): Linear(in_features=4096, out_features=2048, bias=True)
  (lrelu): LeakyReLU(negative_slope=0.2, inplace=True)
  (sigmoid): Sigmoid()
)
[2024-02-15 19:48:11 eval_bs16] (train_images.py 46): INFO Discriminator_D1(
  (fc1): Linear(in_features=2560, out_features=4096, bias=True)
  (fc2): Linear(in_features=4096, out_features=1, bias=True)
  (lrelu): LeakyReLU(negative_slope=0.2, inplace=True)
)
[2024-02-15 19:48:11 eval_bs16] (train_images.py 47): INFO Feedback(
  (fc1): Linear(in_features=4096, out_features=4096, bias=True)
  (fc2): Linear(in_features=4096, out_features=4096, bias=True)
  (lrelu): LeakyReLU(negative_slope=0.2, inplace=True)
)
[2024-02-15 19:48:11 eval_bs16] (train_images.py 48): INFO AttDec(
  (fc1): Linear(in_features=2048, out_features=4096, bias=True)
  (fc3): Linear(in_features=4096, out_features=512, bias=True)
  (lrelu): LeakyReLU(negative_slope=0.2, inplace=True)
)
[2024-02-15 19:53:48 eval_bs16] (train_images.py 44): INFO Encoder(
  (fc1): Linear(in_features=2560, out_features=4096, bias=True)
  (fc3): Linear(in_features=4096, out_features=1024, bias=True)
  (lrelu): LeakyReLU(negative_slope=0.2, inplace=True)
  (linear_means): Linear(in_features=1024, out_features=512, bias=True)
  (linear_log_var): Linear(in_features=1024, out_features=512, bias=True)
)
[2024-02-15 19:53:48 eval_bs16] (train_images.py 45): INFO Generator(
  (fc1): Linear(in_features=1024, out_features=4096, bias=True)
  (fc3): Linear(in_features=4096, out_features=2048, bias=True)
  (lrelu): LeakyReLU(negative_slope=0.2, inplace=True)
  (sigmoid): Sigmoid()
)
[2024-02-15 19:53:48 eval_bs16] (train_images.py 46): INFO Discriminator_D1(
  (fc1): Linear(in_features=2560, out_features=4096, bias=True)
  (fc2): Linear(in_features=4096, out_features=1, bias=True)
  (lrelu): LeakyReLU(negative_slope=0.2, inplace=True)
)
[2024-02-15 19:53:48 eval_bs16] (train_images.py 47): INFO Feedback(
  (fc1): Linear(in_features=4096, out_features=4096, bias=True)
  (fc2): Linear(in_features=4096, out_features=4096, bias=True)
  (lrelu): LeakyReLU(negative_slope=0.2, inplace=True)
)
[2024-02-15 19:53:48 eval_bs16] (train_images.py 48): INFO AttDec(
  (fc1): Linear(in_features=2048, out_features=4096, bias=True)
  (fc3): Linear(in_features=4096, out_features=512, bias=True)
  (lrelu): LeakyReLU(negative_slope=0.2, inplace=True)
)
[2024-02-15 19:56:50 eval_bs16] (train_images.py 269): INFO [0/30]  Loss_D: -18.9522 Loss_G: -6.1232, Wasserstein_dist:24.9086, vae_loss_seen:1071.3744 
[2024-02-15 20:04:48 eval_bs16] (train_images.py 44): INFO Encoder(
  (fc1): Linear(in_features=2560, out_features=4096, bias=True)
  (fc3): Linear(in_features=4096, out_features=1024, bias=True)
  (lrelu): LeakyReLU(negative_slope=0.2, inplace=True)
  (linear_means): Linear(in_features=1024, out_features=512, bias=True)
  (linear_log_var): Linear(in_features=1024, out_features=512, bias=True)
)
[2024-02-15 20:04:48 eval_bs16] (train_images.py 45): INFO Generator(
  (fc1): Linear(in_features=1024, out_features=4096, bias=True)
  (fc3): Linear(in_features=4096, out_features=2048, bias=True)
  (lrelu): LeakyReLU(negative_slope=0.2, inplace=True)
  (sigmoid): Sigmoid()
)
[2024-02-15 20:04:48 eval_bs16] (train_images.py 46): INFO Discriminator_D1(
  (fc1): Linear(in_features=2560, out_features=4096, bias=True)
  (fc2): Linear(in_features=4096, out_features=1, bias=True)
  (lrelu): LeakyReLU(negative_slope=0.2, inplace=True)
)
[2024-02-15 20:04:48 eval_bs16] (train_images.py 47): INFO Feedback(
  (fc1): Linear(in_features=4096, out_features=4096, bias=True)
  (fc2): Linear(in_features=4096, out_features=4096, bias=True)
  (lrelu): LeakyReLU(negative_slope=0.2, inplace=True)
)
[2024-02-15 20:04:48 eval_bs16] (train_images.py 48): INFO AttDec(
  (fc1): Linear(in_features=2048, out_features=4096, bias=True)
  (fc3): Linear(in_features=4096, out_features=512, bias=True)
  (lrelu): LeakyReLU(negative_slope=0.2, inplace=True)
)
[2024-02-15 20:07:54 eval_bs16] (train_images.py 269): INFO [0/30]  Loss_D: -18.9522 Loss_G: -6.1232, Wasserstein_dist:24.9086, vae_loss_seen:1071.3744 
[2024-02-15 20:08:09 eval_bs16] (train_images.py 285): INFO GZSL: seen=0.9284, unseen=0.0084, h=0.0166 
[2024-02-15 20:12:18 eval_bs16] (train_images.py 44): INFO Encoder(
  (fc1): Linear(in_features=2560, out_features=4096, bias=True)
  (fc3): Linear(in_features=4096, out_features=1024, bias=True)
  (lrelu): LeakyReLU(negative_slope=0.2, inplace=True)
  (linear_means): Linear(in_features=1024, out_features=512, bias=True)
  (linear_log_var): Linear(in_features=1024, out_features=512, bias=True)
)
[2024-02-15 20:12:18 eval_bs16] (train_images.py 45): INFO Generator(
  (fc1): Linear(in_features=1024, out_features=4096, bias=True)
  (fc3): Linear(in_features=4096, out_features=2048, bias=True)
  (lrelu): LeakyReLU(negative_slope=0.2, inplace=True)
  (sigmoid): Sigmoid()
)
[2024-02-15 20:12:18 eval_bs16] (train_images.py 46): INFO Discriminator_D1(
  (fc1): Linear(in_features=2560, out_features=4096, bias=True)
  (fc2): Linear(in_features=4096, out_features=1, bias=True)
  (lrelu): LeakyReLU(negative_slope=0.2, inplace=True)
)
[2024-02-15 20:12:18 eval_bs16] (train_images.py 47): INFO Feedback(
  (fc1): Linear(in_features=4096, out_features=4096, bias=True)
  (fc2): Linear(in_features=4096, out_features=4096, bias=True)
  (lrelu): LeakyReLU(negative_slope=0.2, inplace=True)
)
[2024-02-15 20:12:18 eval_bs16] (train_images.py 48): INFO AttDec(
  (fc1): Linear(in_features=2048, out_features=4096, bias=True)
  (fc3): Linear(in_features=4096, out_features=512, bias=True)
  (lrelu): LeakyReLU(negative_slope=0.2, inplace=True)
)
[2024-02-15 20:15:29 eval_bs16] (train_images.py 269): INFO [0/30]  Loss_D: -18.9522 Loss_G: -6.1232, Wasserstein_dist:24.9086, vae_loss_seen:1071.3744 
[2024-02-15 20:15:44 eval_bs16] (train_images.py 285): INFO GZSL: seen=0.9284, unseen=0.0084, h=0.0166 
[2024-02-15 20:15:48 eval_bs16] (train_images.py 295): INFO ZSL: unseen accuracy=0.3690
…
